estnltk/taggers/syntax/stanza_tagger/stanza_resources/et/tokenize/edt.pt (torch_old, 633536 bytes, 23 tensors)

embeddings.weight f4 [129, 32]
00000000: f36a 433f bd20 d9bf 7b34 a93f 4bab 3fbf
00000010: f58c 66bf 916a b83e fa64 193f 8edb 28be
00000020: 0a77 8b3f dd4a 71be f54c f4be dc29 d23f
00000030: 0d66 26bf 74c7 0c3e d13c 26bf b7ed bcbf
00000040: 40a2 8ebf be4a 2e3f f43a 0fbf 48e1 823f
00000050: 628f 803e b08e d1be 499a 533f 2729 c0be
00000060: 06d0 b83e 34f5 6e3f b0f2 a1bd 8f7d ea3e
00000070: ada5 c6be f8f6 b3be 3ac4 1f3f 8999 e5be
00000080: f378 3f3d 930e 313c 53c3 963d 5f41 9ebd
00000090: edea bfbc 1a1c 4cbc 6519 afbd ee1d 203d
000000a0: c031 903d b74b c43d dbbf f5bc 7395 14b9
000000b0: 0ce3 8b3d b9a4 8cbd 4336 403d c45f 323c
000000c0: 6d94 2c3d 91f8 a3bc ef21 edbd a4fe 0fbe
000000d0: 2e4e 57bd 982c 383d 8e37 acbd dd7c 27bd
000000e0: 0ff2 db3d 9f2a 243d f05f a93d 1a7d 6e3d
000000f0: 4190 41bd fd8c 98bd 07c6 c4bd 34d2 333d
00000100: e3ca c03d 364e 893c 5c97 b43d 33b5 08be
00000110: 8e1f 86bd d9b0 4dbd 73b4 803b 2d35 853d
00000120: 21eb 6e3d 08bd 6c3d 80e0 4cbd f470 853c
00000130: 9066 493e 1962 0f3c 434b ecbc 6f1f 3dbb
00000140: e077 ee3c 7af6 9fbc 79a4 66bc 1b66 88bd
00000150: f470 b8bc a027 8e3d 6e2a de3c 3215 f1bc
00000160: 022f 073e cd5f 0cbd b167 243d 5fd0 43bd
00000170: 3161 033d b18f 413d 792b 20be 494b 203d
00000180: 4a36 953e 2bf5 cc3e 8017 dd3d 603f 673d
00000190: 5e21 303f 7480 353f 44a8 50be c134 b3bd
000001a0: f151 3ebe 0d77 373d 5d9b 08bf 79bf 3c3f
000001b0: 5da7 893e d33a 9c3e ec13 bebd 1b1a 773e
000001c0: 4d23 e93e c8e2 833e 3fbc 8f3f 5b46 603f
000001d0: 1813 1dbe 66e3 943b d2a0 313f 1f55 f83e
000001e0: 9605 9fbe 5c7c a0be 5a48 0cbd d085 3a3f
000001f0: af63 1d3e b0cd cbbe 48be 283f 19c7 823c
00000200: 1750 213e af89 b5be 1b76 8bbf 9fe4 0a3f
00000210: 5368 e63e e61e 803d 9be4 ab3c cdd9 49bf
00000220: 521b 79bf 2ab5 cb3d bf85 b8bd fbd0 a6be
00000230: 5ca9 b93b 2aa6 72bd a2d9 ca3e 5ee3 893e
00000240: 367d dfbe 54e3 aa3e d4d7 733e d9c4 33bf
00000250: d323 18bf 26f1 c2be 8a32 383f e413 c13e
00000260: 0700 58bf 0491 f7be 0158 98bb b3c8 7abf
00000270: 0090 94be 8ac7 89be 16d2 4cbe a5b9 86bf
00000280: f383 c7bd 162f 72bf c751 6cbf 2f45 833e
00000290: d686 473e 7a51 ca3e 5da0 b0be 7dd1 a13d
000002a0: b47f 8abf f41c 18bf 1f46 673f 3d6e d43e
000002b0: 4c06 9cbe 91c5 f0bd fe38 45bc 4cb9 8a3e
000002c0: 0547 5c3e eb7c bb3d 7028 14bd 13f5 8cbe
000002d0: bff0 2d3e 6171 20bf a4b3 e23d bb3d 603f
000002e0: 0e5d cebc 9be3 403e 4d4c 9ebe 21b2 2e3f
000002f0: dc4d 973d 4f3d 5d3f 9539 79be 2f2c a33e
00000300: 0e7d fbbe d151 97bc c684 903d 73b9 483f
00000310: 8a50 623f 8992 ec3d 8656 4e3e 06f9 adbe
00000320: 3c4a 083e 18da c3bc 9b0f 353f 01a6 2cbf
00000330: 691f 23bf 1bfb 2bbe 3bd9 39bf d5e7 92bf
00000340: d7f5 c2be 5c08 1bbe 535a 34bf ada3 bcbd
00000350: 282b b1be 51dc 4d3e cdc0 cbbe 7696 b13d
00000360: 016c 44be 7567 efbd d5a9 d93d 1a5f 1abe
00000370: 88ed 2c3f f6f5 2e3f 5169 0a3f 992a a7be
00000380: 0603 e63e 66b0 a23e 1cc7 ebbe 4b15 0f40
00000390: 8469 853e c2af d0be e97a 443f 8792 a2be
000003a0: ad85 04be efe9 d4bf c636 97bf e7a5 e53e
000003b0: 5966 94be f619 333e 4668 6ebf c9af 85be
000003c0: adbb 0cbe 69b0 523f f76d 0fbe ecb8 02be
000003d0: a11d 213e 8c58 b33e 5c5c e2be 28e4 35bf
000003e0: 48d3 71be 5869 96be b3f5 71bf b9da af3c
000003f0: 0c63 a9be c6b4 8b3d 2447 1b3f 8449 c1be
0.76335067 -1.6963116 1.3219141 -0.7487075 -0.90058833 0.36018804 0.59919703 -0.16490003
1.0895703 -0.23563714 -0.47714964 1.6419024 -0.6499947 0.1374796 -0.6493655 -1.4760045
-1.1143265 0.680828 -0.5594933 1.0225 0.25109392 -0.40929174 0.82657295 -0.37531397
0.3609621 0.933429 -0.07907617 0.4579892 -0.38798276 -0.3514936 0.6240879 -0.448437
0.046746206 0.010806697 0.07361474 -0.07727312 -0.023427451 -0.012457872 -0.085497655 0.039091043
0.07040739 0.09584754 -0.02999871 -0.00014170054 0.06830415 -0.06867356 0.046926748 0.01088709
0.042133737 -0.020015987 -0.11578738 -0.14061981 -0.052564792 0.044964403 -0.08409034 -0.040890563
0.107395284 0.04007971 0.08270252 0.058224775 -0.047256712 -0.074487664 -0.09608083 0.043901637
0.094136976 0.016760927 0.08817932 -0.13350372 -0.06548987 -0.050217483 0.003927761 0.06504283
0.058329705 0.05779746 -0.050018787 0.016289212 0.1966803 0.008751416 -0.028844481 -0.0028857847
0.029109895 -0.019526709 -0.014077299 -0.066601 -0.022514798 0.069411516 0.027119841 -0.029429052
0.13201526 -0.03427105 0.04013795 -0.04780614 0.03207511 0.047256175 -0.15641584 0.039134298
0.29142982 0.40030798 0.10795498 0.056456923 0.68800914 0.7089913 -0.20376688 -0.087502964
-0.18585946 0.04479127 -0.53362066 0.73729664 0.268855 0.3051363 -0.092811435 0.24131052
0.45534745 0.25758958 1.1229323 0.87607354 -0.15339315 0.0045437096 0.6938602 0.48502442
-0.3105895 -0.3134488 -0.034248687 0.7286043 0.15370058 -0.39805365 0.65915346 0.015964078
0.15753208 -0.35456607 -1.0895418 0.542551 0.45001468 0.062558934 0.020983031 -0.7884796
-0.9730731 0.09946664 -0.09009885 -0.32581314 0.005665941 -0.059240498 0.39619166 0.2693128
-0.43650216 0.33376563 0.238128 -0.7022224 -0.59429663 -0.38074607 0.71952116 0.37710488
-0.8437504 -0.48352826 -0.0046491628 -0.9796249 -0.29016113 -0.2691005 -0.20002016 -1.0525404
-0.09741964 -0.946031 -0.9231228 0.2563872 0.1948503 0.39515287 -0.34497347 0.07901285
-1.0820222 -0.5941918 0.9034137 0.41490355 -0.30473554 -0.11756433 -0.012037514 0.27094495
0.21511467 0.091546856 -0.036171377 -0.27530727 0.16986369 -0.62673 0.1106942 0.87594193
-0.025190856 0.18836825 -0.30917588 0.68240553 0.07387897 0.86421674 -0.24338372 0.31869647
-0.49118847 -0.01847163 0.070565745 0.78407973 0.8840414 0.11551387 0.20150194 -0.33979052
0.13309568 -0.023907706 0.7072694 -0.674408 -0.63719803 -0.16795008 -0.7259709 -1.1477
-0.38078186 -0.15139908 -0.70450324 -0.09210906 -0.34603238 0.20103575 -0.39795533 0.08671276
-0.19181825 -0.11689655 0.10628096 -0.15075341 0.67549944 0.68344057 0.5406695 -0.32649687
0.44924182 0.31775206 -0.46050346 2.2356746 0.26057065 -0.40759093 0.76750046 -0.31752416
-0.12941618 -1.6633891 -1.181359 0.44853136 -0.28984335 0.17490372 -0.9312786 -0.26110676
-0.13743468 0.8230043 -0.14006792 -0.12765855 0.15733959 0.35028493 -0.4421109 -0.71051264
-0.23615754 -0.29377246 -0.9451553 0.0214666 -0.3308338 0.06821589 0.60655427 -0.377514

rnn.weight_ih_l0 f4 [256, 36]
00000000: 014a 7d3e cc29 f83c dd9e 603d 0ba9 07bf
00000010: be99 07bf d07d a1be 817a 26bf 1f29 f23d
00000020: 2018 a03e 24ff 0d3f 496e de3d 11f0 3abf
00000030: 8aa7 12bf 2144 50bf 6d0a f5bd 06ca 8d3e
00000040: b881 06be d690 f7bd 2f59 1e3e 3e32 ad3e
00000050: 1765 4d3e a9d1 853d f4f7 303e aa8d 123e
00000060: 4a23 41be 355b b93e d3d9 293f a171 b23c
00000070: 8e3a bd3e 5dad a53e 7f32 d43d 6a70 9b3e
00000080: 5238 c43e 9379 a33f 41d9 973f a206 15bf
00000090: 642a ecbd c837 dc3d 29e2 c73d 7d12 6ebd
000000a0: d9c5 e3bd 8894 ce3e c47a 083f f1ff 483e
000000b0: da35 4b3e 7225 f33e d509 fc3e 6ffe 5cbe
000000c0: a2b0 533e 341f 763e 05ac 253e e9ae dfbc
000000d0: 64ea 6abe 1f0b aabd a755 c83c 7211 5e3e
000000e0: dd38 2b3e 7ff9 f73c 5235 90be f50e b9be
000000f0: c586 6b3e eff1 483e ed3f f93d 3a15 b53d
00000100: a0ef 42be a35e 223e 6666 cbbe 160c fc3e
00000110: 77ba 4a3f 988a 34bf 92ab 0fbf 94cf 5dbe
00000120: a0bd 2abe e9f0 123e ca7b 1a3e cae0 813d
00000130: 5179 c53e 245c a2be 5e13 e03d 1949 6fbe
00000140: 632b b53d 5163 2a3e 6042 923d 9733 23be
00000150: 07e7 23be 8cd1 543e 8aab 8ebe 102b ee3d
00000160: 290e 1e3f 3c3c 803d 1353 8a3e 8587 fa3e
00000170: b3a2 86be 75f2 8f3e 4ee4 68bc a318 60be
00000180: 6a93 65be 0e93 2abf 0e62 483e 7cff 02bf
00000190: 16f9 8cbc 22a4 343e 674c bf3c 92e0 e0be
000001a0: 7a18 083e 8570 8fbc ef4e 48bd 0e4a aebf
000001b0: 664a ba3c 6ab2 da3e 41b5 1e3e d8e3 eb3d
000001c0: c0d8 18be ede9 dcbc 2f4c 7c3d 9e6c 263e
000001d0: 9a53 af3e 4c1f a7bd cdd4 40be e100 423e
000001e0: 5a19 863e 05b0 0abc bba9 c6be 2e18 80bd
000001f0: 0b44 94bc 49e0 04be 7f0c 8f3d 332f f03d
00000200: 154a d8bd f32e 4a3d c4bf cbbe 74a0 19be
00000210: e893 4b3e 955f bb3d 8cc2 403e 339c 263e
00000220: 17ba 653d 89a3 343e ef9c 3dbe 1cdc 113e
00000230: 58ff e33f 2626 3d3f c421 213f 50cc a83f
00000240: ac66 063e 71a1 863e 53bb e93d c683 15be
00000250: 07cb 0dbc 0b95 f03d e974 0cbe 7a12 9d3d
00000260: 8614 c53e 1420 8fbd 7867 1bbe 656c e93d
00000270: 63c1 0fbe 791a 8f3b fe19 9cbe c7bc 6c3e
00000280: b952 cabe 04f2 28be d433 423e f7ed c23e
00000290: 4c1b 873e 698a 24be 1052 02be c303 c0bc
000002a0: a57a ed3d cd15 bb3e 58e9 663e 665b 1bbd
000002b0: 9e0f 573c 6e70 8c3e 7e52 34be 0585 c93e
000002c0: 0fda d53f a479 6c3f 3a2c 823f 83b2 5e3e
000002d0: 23b5 5abe faa0 f2be 470b 153e ac86 6c3e
000002e0: a09d 0bbe d982 9e3e 128c d03e d697 5dbd
000002f0: 8e24 52be 343e 3ebe 83df 42bf 8882 8d3e
00000300: 0705 14be f72a cc3e e356 073f d913 163f
00000310: aa0b 9abe f55f 35be 4830 043e 90f8 b63e
00000320: 85cb 59be f776 873e 3a0b 403f 03a0 39bf
00000330: 658f 123e f42b 0b3f d958 363d b420 e23d
00000340: 503a 40be c846 f4be 4466 e53e 3a7e fa3e
00000350: 3c75 f0bd fe4c 0bbd bc53 8fbd 7771 06c0
00000360: eeca cf3d 4fef bf3e 8c05 323d 150c 8ebd
00000370: 7dc3 85bc d057 95bd 23db 82be cb28 a93d
00000380: 95d1 eb3d 7565 b53e 3132 2b3e fc4f 1a3e
00000390: c6a3 68bd f340 d33d e5a2 debd 81a9 9cbc
000003a0: 2e47 a6bd bb4d 71bd 6440 21be 1c33 b53e
000003b0: a95d 4c3e 010c 2c3e fdfc 873e 2c8a cebe
000003c0: 4fbe 20be 3fcb 2d3d aca1 15bd 7c3c 23bc
000003d0: 9ad1 033d 212e 933e 80b3 363d cb0a 20be
000003e0: c942 34bf 2a8d 87be 49a1 f1be 0c41 073e
000003f0: af58 a73c efdf a13e 529f d13e 08b8 aa3d
0.24735261 0.030293368 0.054839004 -0.52992314 -0.52968967 -0.315413 -0.65030676 0.118242495
0.31268406 0.5546744 0.10860879 -0.7302256 -0.57286894 -0.81353956 -0.11964879 0.27693194
-0.13135421 -0.12088172 0.15463708 0.33827394 0.20058094 0.0653413 0.17282087 0.14311853
-0.18861118 0.36202398 0.66348 0.021782698 0.36958736 0.32358828 0.10361194 0.30359203
0.3832422 1.2771477 1.1863176 -0.58213246 -0.11531523 0.10752827 0.097599335 -0.0581231
-0.11121721 0.40347695 0.53312325 0.19628884 0.19844761 0.47489506 0.4922625 -0.21581434
0.20672849 0.2403534 0.16178901 -0.027305083 -0.22940975 -0.083029024 0.024454905 0.21686342
0.1672091 0.030270336 -0.2816568 -0.36144224 0.23000629 0.1962354 0.12170396 0.08841939
-0.19036722 0.15856414 -0.3972656 0.4922797 0.7919077 -0.7052398 -0.5612117 -0.21661216
-0.16673899 0.14349712 0.15086284 0.06341703 0.3856912 -0.31710923 0.10941194 -0.23367728
0.08846166 0.16639449 0.07141566 -0.15937649 -0.16006099 0.20783061 -0.2786525 0.11629307
0.61740357 0.06261489 0.27016506 0.48931518 -0.26296005 0.28114668 -0.014214588 -0.21884398
-0.22419515 -0.6663064 0.19568655 -0.5117109 -0.017208617 0.17640737 0.023351861 -0.43921334
0.13290587 -0.017509708 -0.048903402 -1.361635 0.022740554 0.42714244 0.1549883 0.11518067
-0.14926434 -0.026967013 0.06159609 0.16252372 0.3424347 -0.08160266 -0.18831177 0.18945648
0.26191217 -0.008464818 -0.3880137 -0.06254612 -0.018098852 -0.12976183 0.06984805 0.117277525
-0.10561005 0.04936118 -0.39794743 -0.15002614 0.1988064 0.0914909 0.18824214 0.16270523
0.056085672 0.17640509 -0.18516897 0.14244121 1.78123 0.73886335 0.6294215 1.3187351
0.13125104 0.26295045 0.114126824 -0.14601049 -0.0086543625 0.11747178 -0.13716473 0.0766954
0.3849222 -0.0698854 -0.15176189 0.11397628 -0.14038615 0.0043671695 -0.3048858 0.23118888
-0.39516237 -0.16498572 0.18965083 0.38072178 0.26388013 -0.16068424 -0.12726617 -0.023439294
0.11595658 0.3654007 0.22549951 -0.03792896 0.013126282 0.27429527 -0.17609593 0.39359298
1.6707171 0.9237311 1.0169747 0.21747784 -0.2135816 -0.4738844 0.14555083 0.23098248
-0.13634348 0.30959204 0.40731865 -0.05409988 -0.20521757 -0.18578416 -0.761223 0.2763865
-0.14455043 0.3987653 0.52866954 0.58624035 -0.30087024 -0.17712386 0.12909043 0.35736513
-0.21269043 0.2645795 0.7501713 -0.72509784 0.14312513 0.5436394 0.044518325 0.11041394
-0.18772244 -0.47710252 0.44804585 0.48924428 -0.11741111 -0.034008972 -0.06998393 -2.1006753
0.10146128 0.37487265 0.04346232 -0.06935898 -0.016328568 -0.072921395 -0.25557813 0.08259734
0.11514584 0.35428968 0.16718365 0.15069574 -0.05679681 0.103151225 -0.108709134 -0.019123795
-0.08119045 -0.05891202 -0.1574722 0.35390556 0.19957604 0.16801454 0.26560202 -0.40339792
-0.15697597 0.04243016 -0.036531135 -0.009963151 0.032182314 0.2874613 0.04460478 -0.15629117
-0.70414406 -0.26474887 -0.47193363 0.13208407 0.02042803 0.3161616 0.40941864 0.083358824

rnn.weight_hh_l0 f4 [256, 64]
00000000: 5cd1 243f a59a df3e cdb0 1f3f 8b47 283f
00000010: 56da 8b3e 9db0 393f 475d ce3e 37ed 4ebe
00000020: 6671 da3e bde9 dbbe fb92 8dbe 7dd4 553e
00000030: 40a1 8d3e 538c 753e d55c 543f 0e7e 8abe
00000040: 1938 92bd af72 803c 2084 3f3d ea69 82bd
00000050: 4514 383f d170 243e 7601 073e 25d4 e03e
00000060: 4d78 8e3e db07 b23e 1a99 9bbc 724a c8be
00000070: 5c74 883f 74ac a6be a922 bf3d 69e8 b0bd
00000080: 95a5 ac3e 061e 1f3d 513a 153f 6f59 803f
00000090: caa4 22be c8e7 4b3f 7ebc 0bbe 1d74 793d
000000a0: 3bdc f33e 3c9a 0a3f e229 a63e 18ed b03d
000000b0: 6e75 fd3e 4f59 d4be f1fe 233f 2eb6 86be
000000c0: feb1 6b3e 4b63 3bbf 01e8 f6bd 4f40 04bf
000000d0: 6748 3fbe b272 99be b660 ddbd a34b 883c
000000e0: 3fbf 663f 287b 89be a86b 4a3e 26c4 cdbe
000000f0: 94de 0f3e 648e cbbd 0275 813e dd84 2ebf
00000100: ae6f 0abf 314a 61bc b506 fe3e df8f 563f
00000110: befb c33e a3ed 5a3e e4d8 c2be 6701 913e
00000120: 8d1f 4d3e 92f2 b83e 9995 35be ba57 07be
00000130: e5c0 64be ad1c bdbf 2c2c 323f dbd8 f4be
00000140: 1ad9 c9bd d321 f1bd 4c00 10be e207 f13e
00000150: 2974 4c3f 887c 52bd c3c4 63bd f5b2 ac3e
00000160: 7e11 6a3e 9756 963f ecb9 213e d788 a2be
00000170: a97b db3d 6073 8bbd 270a 40bf 0a2d 203f
00000180: c17a 3f3e f251 5a3e d154 9a3e 85aa 123f
00000190: 4e7f 11bf 6eea d2be 5e8f 1bbf 6635 543f
000001a0: 643c 863e 29db d8be 73f8 5b3f ca8d 9ebd
000001b0: aaa1 2a3f 5f09 82be d887 163f 557d 0ebf
000001c0: 98f9 3e3f 4150 4c3f d570 983d b98c 27bf
000001d0: eb25 2bbf 24bd a4bf 835f f4be 51ed 7ebe
000001e0: 68c1 5d3e b012 64be 02f3 303f 2f3a 203f
000001f0: 86dc 4a3e 593b 753e bf12 193f eaca 843d
00000200: 94e5 c13d a36c 773e 564f cbbd b5a2 e63e
00000210: 1840 e43d e7aa 423e 6b90 563d a65f 73bd
00000220: dec7 bebe 57d4 f43e 9463 4abe 431b 1fbe
00000230: 7eb5 e7bd 13fc e1bd 54dd 9dbd 4136 e83e
00000240: f2d7 3ebd 72fa 1a3f 2ea4 893d ba0c dc3d
00000250: 8cf7 ac3e 9ef3 8fbe 7f92 693e 5c45 5dbe
00000260: 3032 08bd 79db 38bf 1e14 9e3d b056 92be
00000270: 46d3 d8be b7c5 b4bd 99cb 2bbf 4f42 87be
00000280: c1f7 e73e 99ab 01bf 166f dabe 7326 66be
00000290: 9118 f93e 4e86 01be c03d 92be 0c5b 8e3e
000002a0: c85e c6bd 6010 5e3d b59d 04bf 2436 ba3d
000002b0: 144e b4be d1ae 703c 5c0e 5cbe b5b7 183e
000002c0: 4bc4 033f 1ca9 8d3e 124e 163f 75a3 a7bd
000002d0: 19d1 b03d 1942 88be 65c5 9d3e f5da 8fbc
000002e0: 7009 be3d 62fc debe d3af fe3e edd6 d9be
000002f0: b121 9fbe 70ff ecbe 413f 99bd 33cc 593e
00000300: 2498 23bf cd55 4ebd 1adb 773e f283 25be
00000310: 0187 a0be 3a46 3dbd 830a a83e 8579 5dbe
00000320: 61e1 11bf 20ae 26bf daa6 1c3d 8c1b 56be
00000330: 058d 983e 2ce3 803e 879f 33bf a6f9 92bd
00000340: b99b 0b3e aadd a93e ad19 aebe c1bc 63be
00000350: 3fde a1be 31dc c83c 5e0b 143e cb0e 273f
00000360: 61f8 9cbe d720 f63e f89c 8bbd eb33 c4be
00000370: 11aa db3d a8cc 1fbe 594e ed3d 6fd4 f73d
00000380: bfc7 30be b895 ae3d 0a60 8a3e bc2b 353e
00000390: 69ba 92bd ed46 293f 2c44 bc3e a432 0abf
000003a0: f8ad febd 661e 0d3f 1ab3 12bf d43f f5be
000003b0: cbd9 a43e 5d6c b8bd eead 633c e7e4 4a3e
000003c0: 73fa dcbd 26cf 8ebe 8639 8fbe 27f3 33bf
000003d0: c029 37bf 7195 f33d 6992 873c ec12 82be
000003e0: 0d4a b0bf f11e cc3e bbb6 04be b268 813d
000003f0: dc30 9c3d 16c9 ad3e a06a 8d3d 647b 63be
0.6438196 0.43672672 0.6237915 0.65734166 0.27315015 0.72535115 0.4030554 -0.20207678
0.4266464 -0.42951766 -0.276512 0.20881839 0.27662086 0.2397931 0.8295415 -0.27049297
-0.07139606 0.015679685 0.046756864 -0.06367858 0.7190593 0.16058661 0.13184151 0.43911853
0.27826157 0.34771618 -0.018993903 -0.39119297 1.066051 -0.32553446 0.09332783 -0.08638079
0.3372008 0.038846992 0.5829211 1.0027293 -0.15883175 0.79650545 -0.13646123 0.06090175
0.4762896 0.5414159 0.3245383 0.08638972 0.49503654 -0.41474387 0.64060885 -0.26310867
0.23017117 -0.73198384 -0.1205597 -0.5166063 -0.18679963 -0.29970318 -0.10809462 0.016637629
0.9013557 -0.26851773 0.1976763 -0.40188712 0.1404975 -0.09939268 0.25284582 -0.68171483
-0.5407666 -0.013750599 0.49614492 0.8381328 0.38278002 0.21379714 -0.380561 0.28321382
0.20031567 0.36122566 -0.17732848 -0.13217059 -0.22339208 -1.4774376 0.6959865 -0.47821698
-0.09855862 -0.117740296 -0.14062613 0.47076327 0.79864746 -0.051388294 -0.05560757 0.33730283
0.22858235 1.1745175 0.1579358 -0.31745026 0.10716946 -0.068091154 -0.7501549 0.62568724
0.1869917 0.21320322 0.30142835 0.5729144 -0.56834877 -0.4119448 -0.60765636 0.8289398
0.2621795 -0.42354706 0.8592598 -0.07741888 0.6665293 -0.25397775 0.5880103 -0.5565999
0.745996 0.7980996 0.07443396 -0.654491 -0.66854733 -1.2870221 -0.4772912 -0.24895217
0.2165581 -0.22272754 0.691208 0.6258878 0.19810686 0.2394842 0.5979423 0.06484015
0.09467617 0.24162535 -0.099272415 0.4504601 0.111450374 0.19010507 0.05238382 -0.05941739
-0.37261862 0.47818252 -0.19764549 -0.15537743 -0.11313914 -0.110344075 -0.077082306 0.45353892
-0.04659266 0.605384 0.06720768 0.10744615 0.33782613 -0.28115553 0.2280979 -0.2160849
-0.033250988 -0.7220989 0.07718681 -0.28581762 -0.4234869 -0.088267736 -0.6710754 -0.26417777
0.4530621 -0.5065246 -0.42662877 -0.22475605 0.48651555 -0.1264889 -0.28562737 0.27803838
-0.09686047 0.054214835 -0.5180314 0.09092358 -0.3521582 0.014690117 -0.21489853 0.14913829
0.51471394 0.27668083 0.58712876 -0.08185474 0.08633632 -0.26612929 0.30814663 -0.017560462
0.09279144 -0.43551928 0.49743518 -0.42546788 -0.31080392 -0.46288633 -0.07482768 0.21269302
-0.63904023 -0.050374795 0.24204674 -0.16163614 -0.31353 -0.04620955 0.3282052 -0.21628387
-0.56984526 -0.65109444 0.03824506 -0.20908946 0.2979509 0.25173318 -0.70165294 -0.07176523
0.13633622 0.3317693 -0.34003964 -0.22239973 -0.31614873 0.024519058 0.14457461 0.6525695
-0.30658248 0.4807193 -0.06817049 -0.3832086 0.10725797 -0.15605414 0.11587209 0.12101065
-0.17263697 0.0852465 0.27026397 0.17692465 -0.07164461 0.6612385 0.3677076 -0.5398352
-0.12435526 0.5512451 -0.5730454 -0.4790026 0.32197413 -0.09005044 0.013896449 0.19813882
-0.10789957 -0.27892417 -0.27973574 -0.70292896 -0.7154808 0.11893738 0.016549306 -0.2540506
-1.3772599 0.39867356 -0.12960331 0.06318797 0.07626507 0.3394248 0.06905103 -0.22215039

rnn.bias_ih_l0 f4 [256]
00000000: 1a8d ad3d 70c1 61bd bf86 083e 75f4 583e
00000010: 8290 31be 480f e0be 1839 9abe 1022 653e
00000020: e17e d2bd a86d d2be 54bb 5dbe 712d 9a3e
00000030: a5e0 523d 32f9 223f 318f 393e dc40 3fbe
00000040: 51cc 27bd 428c 43be 3c4d 363e 8bd6 413e
00000050: 235c 05bc c2c1 173e 3de6 553e bd50 47bb
00000060: 3c6d 88be 211d 1cbe 12e0 02bf d575 95bd
00000070: c764 0ebe 9e99 afbd 19a6 5abe c288 af3d
00000080: 3374 4ebe 24d5 b9bc 3e62 36bf 8cd0 943e
00000090: e0d2 0c3e 01ba 4fbe 6515 a13e 1b39 97bd
000000a0: 7b18 b43e 2e61 813e cc8c dcb8 de8a 41be
000000b0: 7456 de3e bc47 3f3e 7b04 debe 7de3 023e
000000c0: 35fb c43e cbb3 e63e 0bc5 ce3d 0186 ed3d
000000d0: 1118 70bd 3865 68bd f92f 0b3e 8bd5 debd
000000e0: 1f3f a83e a7b3 a63e 3ec6 ff3d 546f 2ebd
000000f0: c934 243e 5167 a83d 394f 7a3d eebd 2a3d
00000100: ef41 11bf de5c 28be 084f 39be 8ac5 fbbe
00000110: 6f87 e33d 36d6 36bf 6855 cb3d 98d6 c7be
00000120: 0250 adbe c3d1 c4be 77f6 023f 003a 9c3d
00000130: 62c8 99be f26e 34bf 7919 073e 48e7 25bd
00000140: e854 d2be f483 6cbe 2fd8 e4bd 4dc8 e4be
00000150: c8db 05bc cc1f e4be fbf3 19bf 9af3 fcbe
00000160: 442e 17be f7b8 62be 1ebb 193f 0187 28bf
00000170: b78a e83c f10a 57be a2c6 c83e fcb6 2e3e
00000180: 1368 8ebe 04c9 cebe bb93 103f dcc3 c5be
00000190: 3200 07be 1e9d 8abe 8a50 0c3e e687 03bf
000001a0: da50 12be b65c abbe 0761 95be 222f 55be
000001b0: 7c6f 4b3e c125 1fbf e30c 743e f4a2 f5bc
000001c0: 8cd7 16bf 47c5 34bf 5c6d c93d 6f84 b6be
000001d0: 305e 97be 52ea 2ebe 2618 103e 59c7 2cbf
000001e0: 4edf 44be f22b 813e afd3 de3d 7a6a a3be
000001f0: 969c 30be d089 8abd 2029 abbe e4d8 ed3e
00000200: cf6c 23bd a816 a7be d477 b9bd 7e73 0ebe
00000210: e424 ddbc 6fdb a1be cff1 c0bc 6939 17be
00000220: 96cf 0fbe 033e 37bc 9050 103d 82c4 26be
00000230: d2da 71be 1cbe 9f3c dc7e 9fbe 1e29 ad3c
00000240: 2490 91bd 16cc dc3d a541 52bd 6521 75be
00000250: 1eb1 39be fb15 853d 5d19 bc3d fd07 e3bd
00000260: 53b5 abbe da19 043e 4d1f 5ebd 291a ac3c
00000270: bbab 903d 524e dcbd 458c 3cbc c7ab f0bc
00000280: d071 da3d f5c5 71be e048 e63d 3468 a7be
00000290: 1522 873e 29be ab3d 5ee3 82bd a8e3 353e
000002a0: 16bb 173c 0539 c7bd 1231 763e 14c8 323e
000002b0: a0b1 06be 6a84 803e 4022 8b3d 1b2d 09bd
000002c0: ef25 413b b987 963e 9faf ae3d e018 db3e
000002d0: bd44 2c3e b1a1 91bd 46d6 5fbe 22e7 82bc
000002e0: 399a 52be 49f7 b5bd c9c9 04be 6459 94bd
000002f0: 78ba 63bd fd45 f13d a09d 043d 04e9 813e
00000300: 38d4 883e 936c aebd 53a1 bdbc 76a6 8f3e
00000310: 6af5 563e dcd5 85bd 7eaa 86bc d5c5 ea3d
00000320: 1aff 4d3e d0b2 41be d360 c43d ca7b a8be
00000330: e4d6 413e 2df2 e93e 7cb2 a5be 7590 aa3e
00000340: 526c 48be 7a6e 683e 2d54 e03e dbbb e63d
00000350: 7f59 c13e 741d 5f3e 3ee3 d33e 47cf cc3d
00000360: 7594 09bf c133 3bbe 169d 5c3e 605c 503e
00000370: ca52 37be 33f7 c03d 453d 82be faf8 09bd
00000380: bb13 0dbe 16db 2b3e b9d2 ac3e d0a8 323f
00000390: 6abc 4abe ca89 8ebe 1947 64bb cde2 aa3d
000003a0: 176b 6bbc fab9 4c3e 163a ab3c 8d15 2f3e
000003b0: 93c7 c2be 1053 08bf 337c 1d3f 837f bb3e
000003c0: 9b85 0a3f 062c f03e d137 7f3d 2743 713e
000003d0: 23c1 893d 9a73 1cbe e774 803e 61f7 253e
000003e0: 1bcb 8bbd 43e6 ef3d 7e7e 4abe c7f6 ff3d
000003f0: 6f49 2f3e ccbd b83d c962 f7bb 5035 f4be
0.084741786 -0.055116117 0.13332652 0.21187003 -0.17340282 -0.4376166 -0.30121684 0.22376275
-0.102781065 -0.41099286 -0.21653491 0.30112794 0.05148377 0.6366149 0.1812103 -0.18677086
-0.040966336 -0.19096473 0.178029 0.18929498 -0.008139643 0.14820006 0.2088861 -0.0030413114
-0.2664584 -0.15245487 -0.51123154 -0.07297865 -0.13905631 -0.08574222 -0.21352424 0.08571006
-0.20161514 -0.022684641 -0.71243656 0.2906536 0.13752317 -0.20285799 0.31461635 -0.07383939
0.35174927 0.25269455 -0.00010516643 -0.1890063 0.43425333 0.18679708 -0.43362793 0.12782092
0.38472906 0.45059046 0.10096177 0.11597825 -0.0586167 -0.056737155 0.13592519 -0.10880574
0.32860658 0.3255894 0.124889836 -0.04258664 0.16035761 0.08222831 0.06111071 0.041685037
-0.5674123 -0.16441676 -0.18096554 -0.49174148 0.11109816 -0.7142061 0.09928399 -0.3903091
-0.33850104 -0.38441285 0.51157326 0.0762825 -0.30035692 -0.7048179 0.13193311 -0.04050377
-0.41080403 -0.23097211 -0.11174046 -0.44684067 -0.008170076 -0.4455551 -0.6013791 -0.49404603
-0.14763743 -0.22140871 0.60051143 -0.65831 0.028386457 -0.21000268 0.39214045 0.1706199
-0.27813777 -0.40387738 0.5647542 -0.3862599 -0.13183668 -0.27072996 0.13702598 -0.5137924
-0.14288655 -0.3346917 -0.29175588 -0.20818761 0.19866747 -0.6216698 0.23833041 -0.029984929
-0.5892265 -0.7061352 0.09835312 -0.35647914 -0.29564047 -0.17081574 0.14071712 -0.6749168
-0.19225809 0.2522884 0.10880219 -0.31917173 -0.17247233 -0.06764567 -0.33429813 0.46454537
-0.03989869 -0.32634473 -0.090560585 -0.13911244 -0.02699513 -0.31612727 -0.023552803 -0.14767994
-0.14044032 -0.011184218 0.03523308 -0.162859 -0.2361863 0.01949983 -0.31151474 0.02113777
-0.07107571 0.10781114 -0.051332135 -0.2393852 -0.18133971 0.06498333 0.09184525 -0.11085508
-0.33536777 0.12900487 -0.05422907 0.021008568 0.07064005 -0.10757126 -0.011508052 -0.029378785
0.10666239 -0.23610671 0.112443686 -0.32696688 0.2639319 0.083858795 -0.06391023 0.17762625
0.009260913 -0.097276725 0.24042156 0.17459136 -0.13153696 0.25101024 0.06793642 -0.03349028
0.0029472073 0.29400423 0.08529591 0.42792416 0.16823097 -0.07110918 -0.21859083 -0.015979353
-0.20566644 -0.088850565 -0.129676 -0.072436124 -0.055597752 0.11780927 0.032376885 0.2537309
0.2672441 -0.08516803 -0.023148214 0.28056687 0.20992056 -0.06534931 -0.016438719 0.11463515
0.20116845 -0.18915868 0.0958878 -0.32906944 0.1892963 0.45692578 -0.32362735 0.33313337
-0.19572571 0.22698393 0.4381422 0.11266299 0.37763593 0.21788579 0.4138431 0.100004725
-0.5374215 -0.18281461 0.21544299 0.20347738 -0.17902675 0.094221495 -0.2543737 -0.03368471
-0.13777058 0.16782793 0.3375452 0.6978884 -0.19798437 -0.278395 -0.0034832417 0.0834404
-0.014368794 0.1999282 0.020901721 0.17098065 -0.38042888 -0.53251743 0.6151764 0.3662072
0.54110116 0.46908587 0.06230909 0.23560773 0.06726291 -0.15278473 0.2508919 0.16207649
-0.06825849 0.11713841 -0.19774815 0.12498241 0.17117856 0.09020576 -0.007549618 -0.47696924

rnn.bias_hh_l0 f4 [256]
00000000: 451e 333d e7c0 cc3d 7bb6 0e3e 2dd4 6f3e
00000010: 7681 e6bc cf27 c9be f64c 10be e922 babc
00000020: 988c ddbc 49f0 cbbe d5ed 05be 79ef 4d3e
00000030: 0b06 b13d b839 063f 7dd5 2e3e ef2b 8e39
00000040: b951 023e ec2d 25be 8649 7c3e 684a 403e
00000050: aa4c 0fbe fe14 973d 7548 a33e 1992 c2bd
00000060: 929d 84be 781d 29be 0e0f 27bf 45ba 4abc
00000070: 2acc 45be 2b73 8f3d d8f1 febc bec5 413e
00000080: 699d eebd 07f4 dfbd afb9 40bf 03b1 5d3d
00000090: e903 283e 5d52 79bc 076b b53e af80 e0bc
000000a0: 5526 013f 16fb c43e e770 8abc 0c86 1ebe
000000b0: 2a8e 173f 982e 8c3d 8b62 c2be 029f 913e
000000c0: 8460 093f 1c15 b03e 61ce 59bd 90ea f13c
000000d0: b4f4 ef3c 8e68 a53d 30b0 083e 5890 20be
000000e0: 069b b33e 7827 be3e bf9a ed3d a146 75be
000000f0: 483e a83d 454f c33c 412c 213d 7f68 2bbd
00000100: cae2 2cbf a485 2bbe 9627 1ebe 79e5 1cbf
00000110: d9c7 c0bc 40b0 1fbf 8ad6 603e 67ab 85be
00000120: 769d c1be 0ece a0be d784 cb3e 920a 853d
00000130: 4e5c f8be da7a 31bf 5352 393e ca96 043e
00000140: 95d1 1cbf 745b d0be 23ed de3d 7822 b5be
00000150: 0433 0ebc 2296 babe 43f3 0bbf 017e debe
00000160: 10d7 dabd 887f 6fbe d8ee b63e 34d5 13bf
00000170: 4c79 cc3c 7e89 94be f690 b13e 0747 6b3e
00000180: 2221 6dbe 2e6c 08bf 6088 053f 208b ccbe
00000190: 58bf f83c d0ea c5be 2de3 c43d 6c5f d8be
000001a0: 333a a1be 6722 aabe 3b02 e5bd bf30 51be
000001b0: a97c 6f3e 9d05 0ebf 54a8 343e ca90 31be
000001c0: 891d 07bf 4dfd 26bf d589 7f3d 8c6a 83be
000001d0: a6fa dbbd 9c7b 39be 81c2 c33d c5d7 2abf
000001e0: 2380 26be 00fe 883e 7431 a83d 6788 1cbe
000001f0: 0509 1cbe 2ed3 a33d adc5 80be 2ef2 de3e
00000200: cf58 9b3d c719 99be 5d49 0cbe 4a9d 3e3d
00000210: 2e06 d23c 07c6 b4be 1786 2cbe bb2f 82be
00000220: 68e6 2bbe fce3 c43d 5518 a7bd f34f 1bbe
00000230: 145c d9bd 9b31 3f3d 2aaa b3be cb40 153e
00000240: 4487 c4bd db97 70bd a245 49bb 490b 2abe
00000250: 18c3 68be 5d4a 8b3d 08d9 a6bd d6df 95be
00000260: 3063 d7be d49f a53d 34fa c33d ef7b b03d
00000270: 9b24 b03d c2f1 d1bd b7cf 4abe 34b4 813c
00000280: 20c4 2e3e 2332 16be ee2f 423c 1f06 96be
00000290: 5cac b03d ade1 0a3e bbcb 08bd e43f de3d
000002a0: 7abc b73b 2408 08bd 15dc bd3d 8e90 e33d
000002b0: 9459 75bc a868 983d b27b 493d c168 e0bd
000002c0: 6f64 1fbc adc6 353e 3fd9 203e b2ef 8f3e
000002d0: 4741 313e 0ed1 f4bd 78bd 5abe 20b9 e8bd
000002e0: c9d8 91be 0e6c f1bd dcf2 c83d 121d e83d
000002f0: 6ba8 68bd 02f4 963e b08e a63d 40b6 8c3e
00000300: 2f2f 743e de27 e6bd 5a26 003e a1f1 963e
00000310: 508c 8b3e 0f7c cbbd e259 17be fecb 573e
00000320: bf29 993e 7d4d 103c 8fc7 9b3d 1245 6ebe
00000330: 2eaa d63d 03b4 ad3e 14bd cebe 20f3 d73e
00000340: 1e26 08be 8f4d 763e 2632 f73e 7ad2 6c3d
00000350: a6d4 d83e 01f5 043e 72b2 0e3f ab2f 303e
00000360: 1660 ebbe 31c1 81be dd45 bb3e b10c a83e
00000370: 3bce c1bc 1e84 903e 25df 09bd de42 83bd
00000380: 7882 05bd 600b 8e3e 127c aa3e 04f3 f83e
00000390: 4b8a 91be 916a d0be 40d6 52bd 267e 9e3e
000003a0: fbac 6d3d e823 663e 23c8 df3d 9d6a 2b3e
000003b0: c312 c8be 3108 ebbe 939b f03e 2bbe 9a3e
000003c0: d302 193f 9bde d03e 16c4 08bd 551f e33e
000003d0: 1a82 01bd 4802 d7bc d171 2d3e 1c7f 4f3e
000003e0: d83e 9fbd 5877 3c3e a472 39be 48ae 533d
000003f0: 0b5a 2c3e 4a5c 32bb 7b54 f4bd 3615 90be
0.04373004 0.09997731 0.13936798 0.23420782 -0.028137904 -0.39288184 -0.14091858 -0.022721725
-0.02704458 -0.3983176 -0.13079007 0.20110883 0.08643731 0.5243182 0.17073627 0.00027117084
0.12726487 -0.16130799 0.24637422 0.18778384 -0.13994089 0.07377051 0.31891218 -0.09500522
-0.25901467 -0.16515148 -0.65257347 -0.012373512 -0.19316164 0.070043884 -0.03112118 0.18923089
-0.11651117 -0.109352164 -0.7528333 0.05412389 0.16407742 -0.015217391 0.35433218 -0.027405111
0.50449115 0.38472813 -0.01689954 -0.15480822 0.592013 0.068448246 -0.37965807 0.28441626
0.53662896 0.34391105 -0.053175334 0.029530793 0.029291488 0.08076583 0.1334846 -0.15680063
0.3507921 0.37139487 0.11601781 -0.23952724 0.08215004 0.02384151 0.039348844 -0.041847702
-0.6753355 -0.16750199 -0.15444788 -0.6128765 -0.023532795 -0.6237831 0.2195684 -0.26107332
-0.37815446 -0.31407207 0.39749786 0.06496157 -0.48507923 -0.6932808 0.1809781 0.12948146
-0.61257297 -0.40694773 0.10885074 -0.3537786 -0.008679155 -0.36442667 -0.5466806 -0.43455508
-0.10685551 -0.23388493 0.35729098 -0.577472 0.024960183 -0.29011148 0.3468091 0.22976314
-0.2315717 -0.5329007 0.52161217 -0.39949894 0.030364677 -0.3865571 0.09613643 -0.422603
-0.31489715 -0.33229372 -0.11182066 -0.20428751 0.23387398 -0.55477315 0.17642337 -0.17340389
-0.5277944 -0.65230256 0.062387306 -0.25667226 -0.10741167 -0.1811356 0.09558583 -0.6673549
-0.16259818 0.26756287 0.082125574 -0.15286408 -0.15237816 0.07999264 -0.25150815 0.43544143
0.07585298 -0.2990248 -0.13699861 0.04653672 0.025637712 -0.35307333 -0.16848026 -0.2542704
-0.16787112 0.09613797 -0.08158938 -0.15167217 -0.10613266 0.046678167 -0.35090762 0.14575498
-0.09596112 -0.05873857 -0.003071167 -0.16605867 -0.22730672 0.06801293 -0.08146864 -0.29272336
-0.42067862 0.080871254 0.09569207 0.086173885 0.08600732 -0.1025119 -0.198058 0.015832998
0.17067003 -0.14667563 0.011852248 -0.29301545 0.08626625 0.13562651 -0.033397418 0.1085203
0.005607185 -0.03321089 0.09270493 0.11111556 -0.01497497 0.074418366 0.04919023 -0.1095748
-0.009728535 0.1775157 0.15707873 0.2811256 0.17310058 -0.119539365 -0.21361339 -0.11363435
-0.28485706 -0.11788188 0.09811947 0.1133367 -0.05680124 0.29483038 0.08132684 0.27482796
0.23846124 -0.11238073 0.1251463 0.29481223 0.27255487 -0.09935772 -0.14780381 0.2107391
0.29914662 0.008807537 0.07606422 -0.23268536 0.10481678 0.339264 -0.4037863 0.42177677
-0.1329579 0.24053024 0.48280448 0.057817914 0.42349738 0.12984087 0.55741036 0.17205684
-0.45971745 -0.25342706 0.3657674 0.32822183 -0.023657909 0.28225797 -0.033660073 -0.06409238
-0.032595128 0.27743053 0.33297783 0.48622906 -0.28425822 -0.40706304 -0.051473856 0.3095562
0.058026295 0.22474635 0.10926845 0.16739888 -0.39076814 -0.45904687 0.46993694 0.30223212
0.59769934 0.40794834 -0.033390127 0.44359842 -0.031618215 -0.026246205 0.16937949 0.20263332
-0.07775658 0.18404901 -0.18110138 0.05167988 0.16831224 -0.0027215653 -0.11930176 -0.28141183

rnn.weight_ih_l0_reverse f4 [256, 36]
00000000: 59dc 923e ad2d 5fbf 929d 123e 2e40 4e3d
00000010: 1169 b33e d70b d63e 0bf4 513e 5a1f 8cbd
00000020: 422f 233d 1ce0 483e 4bf0 053e 6e9f 45be
00000030: 7581 16bf be9a 60be bc65 2a3e d3b0 1e3e
00000040: 958e 1abf 28a7 e7be 2b98 cb3d dfd3 91bd
00000050: 5abc 5ebc 76cf 9b3e 94e5 e93e 2f1b 5fbc
00000060: e3e6 7e3e 323a dd3d 460d 2ebd 308b a9be
00000070: 2cac 3ebe 97cd 79be 7b19 88bd d185 3f3b
00000080: 1185 27bf 1ef6 40be 6b08 a2be 2dcb 62be
00000090: ef8a e7bd b088 36be 9a1f 3bbb bcf4 d5bd
000000a0: 306d a9bc b83d 3f3d bc8f b1bd 2c7f 9abe
000000b0: 6ead 65bd 0e36 833d eb8e 70be 9889 d0bb
000000c0: ac3e 1d3d 0a46 9fbe e0d7 de3e c3bc 82be
000000d0: c416 dabe 998b 243e dd42 fa3c 253f 4ebd
000000e0: 2a50 943c 7c4f 883c 7590 8f3e d858 31be
000000f0: 8941 e23e cc2a b23d 59cf e9be 4925 1bbc
00000100: 2a6c 35be bf75 9abe 68ff a8be 20e5 383e
00000110: c52a 3b3f 8c6e 2c3e 3e8e 703d b9a1 1ebf
00000120: 9708 d0bd 47f0 d83e 2303 983e 1d0b 8ebb
00000130: 8011 55be d54e 02be 43f3 e53e 43e7 243e
00000140: d9dd 103f e31c 8f3c 1a00 973e f3dc 7cbf
00000150: 70be aebe 1f58 033f fba2 f9be ee63 903e
00000160: 1531 2cbd fe07 97be de21 fa3e 94a5 3f3e
00000170: 24a1 803e 4e74 9cbd f4d4 753e 9b56 60bd
00000180: 6998 f1be e1cd 4c3e 6a04 b73e 8b38 36bf
00000190: c307 a7bb b324 c3bd 385a 86bd c4c6 d3be
000001a0: 54de 1bbf 6183 4dbe d708 3c3b 2fc6 c3be
000001b0: 5c68 8abe 2fbf 21bc 54c2 27bf b8ad 8bbe
000001c0: 0cc1 1ebf 0cfc 70be be1d b23e 381a d03e
000001d0: 28ba b2be 80e0 423d c05c 1ebe a0b9 dabe
000001e0: ff7d 8dbe a6aa a23e 23f9 123e 782b 70be
000001f0: 02cc 28bf 880c 32bd cbf1 1cbf e5da d0be
00000200: 358c 83bd 4b49 723e a04a 07bf e76d 39bd
00000210: 87bd cd3c 32fb aabd 822e 37be fb68 bdbd
00000220: 038a 1abd ea8b 9f3d bb15 14bd f980 783e
00000230: abbb b7be 96aa 833d 096c 3c3e ef1b 02c0
00000240: 404f 8a3e 7e87 16be 9c84 48be e969 323e
00000250: 4ae0 ad3e 5375 d93d d323 3d3e 8ba0 bcbe
00000260: 475f 16bf ab7b f8be fee1 35bd e810 bdbd
00000270: 63e1 873e 9dc9 2e3f f00c f13e 261c be3e
00000280: b24a e03e 6f28 9f3e 8978 953d 863f 323e
00000290: a31c c3bd b30a 9ebd e9c6 453e c904 b73e
000002a0: 9d46 213d eeee b7bd 6331 3abc 2c71 a73e
000002b0: 164f b3bd cc3f 823e bde8 8e3e 66d2 0f3e
000002c0: 1664 a33f 8092 51bf 2f04 60bf 498d d43d
000002d0: 8c02 9c3d d7c2 a63d 479b 253d e90c 54bc
000002e0: 924c 873c fba4 2e3e 06ba 1e3c f8ba 463d
000002f0: 51a9 643e 51c8 9c3d ad06 4f3e 2a89 9a3e
00000300: 015c e53d 58c1 36bd 6046 edbd a8d7 303b
00000310: 3504 8e3d 6062 9a3d 175b c13e fa28 b33e
00000320: e552 f53d defd babc 1652 523d f554 553e
00000330: 9424 613e 385c 11be 4add 8d3d f306 76bd
00000340: 33c2 503d c095 9c3d 76e5 2fbe 5a21 8bbd
00000350: 2f30 e33e c632 b13f 9427 c13f 96aa 14bf
00000360: 6641 11bf e65a 7a3d f093 823c 2981 3abd
00000370: 400b c2bc e054 a83e f5f6 1bbc 8855 03bf
00000380: 2e6b a8bd 9466 253f 4073 173f 0ff0 f8bd
00000390: 23b4 6cbe 97c4 733e 7c2a 54be 01cc 33be
000003a0: 8a8a 2abf 40f5 2dbe a4f5 4dbd c239 f5bd
000003b0: 45ad 0bbe ee2f 3fbf 5223 d23c cf1e a83e
000003c0: a918 f4be 2214 a03c c895 ef3d b459 dfbd
000003d0: bc6e 0cbe f4b7 553d 4a37 6e3b 0f3b a7be
000003e0: 1529 7fbf fa33 843e 570c 233e 1a58 1ebf
000003f0: e52a 3cbe 261f adbe 59e3 753d 8498 553e
0.28683737 -0.8717907 0.14317921 0.050354175 0.35041097 0.41805908 0.20503251 -0.06841917
0.03983999 0.19616741 0.13079946 -0.19299099 -0.58791286 -0.2193403 0.16640371 0.1549714
-0.6037381 -0.45244718 0.09941133 -0.07120489 -0.013594711 0.30431718 0.45682967 -0.013617321
0.24892764 0.108021155 -0.042493127 -0.33114004 -0.18620366 -0.24394833 -0.06645485 0.0029224048
-0.6543742 -0.18843886 -0.31647047 -0.22147818 -0.11305796 -0.1782558 -0.0028552772 -0.1044707
-0.020681947 0.04668972 -0.08669993 -0.3017515 -0.0560736 0.064067945 -0.23492019 -0.0063640587
0.038389847 -0.31108123 0.43524075 -0.2553464 -0.42595494 0.16068877 0.030549461 -0.050353188
0.018104631 0.016639464 0.280399 -0.17319047 0.44190624 0.08699569 -0.45666006 -0.009469339
-0.17717043 -0.30167958 -0.3300736 0.18056154 0.73112136 0.16839045 0.058729403 -0.6196552
-0.101578884 0.42370817 0.29689893 -0.004334821 -0.20807457 -0.12725385 0.44912156 0.16103844
0.5658851 0.017469829 0.29492265 -0.9877464 -0.34129667 0.5130634 -0.48757157 0.2820124
-0.042038996 -0.29498285 0.48853964 0.18715507 0.2512294 -0.07639371 0.24007016 -0.054770093
-0.47186592 0.20000412 0.35745555 -0.7118003 -0.005097361 -0.09528484 -0.065601766 -0.41362584
-0.6088612 -0.20069648 0.0028691792 -0.3823714 -0.27032745 -0.009872242 -0.65530896 -0.27280974
-0.62013316 -0.23533648 0.34788316 0.40645003 -0.3490765 0.04757738 -0.15465069 -0.42719746
-0.2763519 0.3177082 0.1435285 -0.23454082 -0.6593629 -0.043468982 -0.61306447 -0.40792003
-0.06423227 0.23660772 -0.52848244 -0.045270827 0.025114788 -0.08348693 -0.17888835 -0.09248539
-0.037729274 0.07790358 -0.036153536 0.24267949 -0.35885367 0.06429021 0.18400587 -2.032955
0.27013588 -0.14700124 -0.19581836 0.17423214 0.3396018 0.10618081 0.18470697 -0.36841235
-0.5873913 -0.4853185 -0.044404976 -0.0923174 0.26539144 0.6827639 0.47080183 0.3713085
0.43806988 0.31085536 0.07298381 0.17407045 -0.095269464 -0.077168845 0.1931416 0.35745838
0.039373983 -0.08981119 -0.011364314 0.3270353 -0.08755319 0.25439298 0.2791194 0.14045104
1.2764919 -0.81864166 -0.87506384 0.103785105 0.07617673 0.081426315 0.040431287 -0.012942531
0.016516004 0.17055123 0.009687906 0.04851815 0.22330214 0.07655395 0.2021739 0.30182773
0.11199189 -0.04461798 -0.115856886 0.002698401 0.06934396 0.07538295 0.3776481 0.349922
0.119787015 -0.022826131 0.051347815 0.2083319 0.2198661 -0.14195335 0.06926973 -0.06006522
0.050966453 0.0764575 -0.17177376 -0.06793471 0.443727 1.384362 1.5090203 -0.58072793
-0.56740415 0.061121844 0.015939683 -0.045533333 -0.023687005 0.32877254 -0.009519328 -0.51302385
-0.08223568 0.64609647 0.5916023 -0.121551625 -0.23115592 0.23805462 -0.20719332 -0.1755829
-0.66617644 -0.16988087 -0.05028309 -0.11973907 -0.13640316 -0.7468251 0.025651608 0.32836005
-0.47675064 0.01954085 0.116984904 -0.109057814 -0.13714117 0.052177384 0.0036348873 -0.32662246
-0.9967206 0.25820905 0.15922676 -0.6185318 -0.18375738 -0.33812827 0.06003127 0.20858961

rnn.weight_hh_l0_reverse f4 [256, 64]
00000000: b318 8f3e 4812 cc3e 3fca ca3e a913 83be
00000010: 254d 83be 7051 c83e 6336 91bd 9d91 2cbf
00000020: f443 dfbd a08d 59be 97c3 ff3e eefa da3d
00000030: bd31 b3bd 3566 8c3d 72b4 153f 69f0 52be
00000040: 88cc 87be 894d da3c 9b25 78be 0007 5d3e
00000050: 9d43 893e 86c5 1f3e 34f3 ddbe 0181 a63e
00000060: e38a 26bc 9a07 923f 2177 953e 3974 063f
00000070: 9130 fc3e 0898 dabe 7278 d2be e81c b23e
00000080: 49e4 eeba d1b0 04bf 3347 a8bd 81a3 69be
00000090: 9054 84bd d62e 2ebd aee3 d1bc 8835 093f
000000a0: 77d6 533d 8f69 5abd 4f76 043f 8a8f 9c3e
000000b0: b364 debe b511 0c3e ca76 33be 490a babe
000000c0: d83f 8bbe cdce 2c3e ff34 17be 30a2 11bd
000000d0: 4eb6 9e3e 772a 17bf 90e7 aa3e ce64 11bf
000000e0: 8b82 dc3c 1fab 33be e4c8 4dbf 69f9 e6be
000000f0: 4758 edbe 6ba2 c13e c1ee 9fbe 8b0c 5a3e
00000100: aa90 2f3f 7a02 d3be ca1c 48bf f786 803e
00000110: 3101 ab3e 1133 da3e 7d52 a4bd 4041 42bc
00000120: 4d7a d43b f34e a6be 5ff3 d7be a91c b33e
00000130: 1e1f 52be 9e1e 80be 1568 253e dcd0 17bf
00000140: 1fb6 923e 104c 3a3e a2be 193d e01d 963e
00000150: 2301 a2be e81c 50bf 76a2 483e 76d9 0a3e
00000160: 9edb 213f a6e9 e4be 1241 883e bfcb a6be
00000170: 3063 8abe 38a7 ca3e 65fe 173f 8161 92be
00000180: c529 4bbe c796 46be a5ed 57bd 40a1 25be
00000190: b6ed 1f3f 38df 0dbf f717 cd3d 547f 9ebe
000001a0: 3012 4cbe 2452 863d 32d4 023e ae84 6fbe
000001b0: feca bcbe 7e85 86bd 332b 153e 0efa 413c
000001c0: 8a4b fbbe dad3 0abe 2970 4f3e 38e9 b03d
000001d0: 0663 07bf 1a1c fabe eee3 3cbc ec19 2c3d
000001e0: 841c 963e 776b f1be 54a6 8b3e 0612 30bf
000001f0: 0aea 953d 7cc5 0ebe ce19 d83e f4e3 3bbe
00000200: 6a1f 593d cedd a43e d164 7c3e 02da 8b3e
00000210: 6eec 263c ce8e dc3b c4e8 0b3f 6865 b7be
00000220: 4e11 38bc 89b7 033e 7872 9fbc e2bb a1bd
00000230: 063d 1c3e a032 263f e6a6 843e 0d8b 1abe
00000240: d3cb 013f 875d 38bd 6659 833e 06a2 9f3e
00000250: e9cd bfbe 1ede 723e 8df3 8bbe 9e9d 673e
00000260: 9d75 673f 961d f63c 6d5f d23e 258f e6bd
00000270: 4608 983d 7c6b 083e 0145 2d3d 6574 7cbe
00000280: c076 a13d 9b60 993d c211 363f b69a 3cbe
00000290: 7326 c63c 622d 173d 6d75 1cbe 17d5 05bf
000002a0: e2ab 53be 9a91 eabc 831f bf3d 4bc2 9a3e
000002b0: 0ffd 4d3f 5694 d43e 0615 b8be 69f9 273f
000002c0: ac70 9f3d 1e30 433d 02d3 8f3e 1c88 263d
000002d0: 9de1 d23e 2f27 763e eb85 223e 746c 12bf
000002e0: a77f 88bd 2500 143f e972 f13e 7ece 903e
000002f0: 23b2 f43e e6eb 3f3e 7607 ecbe c648 58be
00000300: 23e9 b8bd ffe7 4b3e 76f6 543f 042e df3e
00000310: 2424 a73e 23be 373e 52ff 743e 5119 1a3f
00000320: f999 4bbd e339 e1bd 29ce e03e 8c6b 9b3d
00000330: 73d6 453e abc2 043d 02f9 4cbe 57bb 3d3e
00000340: 4bff ef3e 9a34 83be d150 b53d 6ffd c73e
00000350: 85c8 53be f45c 1d3e b75d eebd 7a86 df3e
00000360: e181 93bc 13e7 7ebe 749b 4bbe a329 3eba
00000370: 3789 0cbf 94f2 f73e d325 eb3d 1e2d 47bf
00000380: 8505 1dbe 81bc babd bd6f 42be b928 dc3e
00000390: 8191 0e3f 5a5d 8bbe 8d19 a7be 2c32 da3e
000003a0: cd5b 8b3e be70 81be 3ba2 31bd c861 013e
000003b0: 8778 8fbd 01ba 8a3d 383c ac3e eed1 debd
000003c0: 3626 613e 99b0 f53d 7051 8f3e 72a3 f23d
000003d0: a116 56bd 6197 e33e 4a7c f23d 4d5f d23e
000003e0: 3fd3 d83d 6531 69be 39b6 ad3e adb8 ff3d
000003f0: 7d86 6a3e 3112 93be 572c 2fbd bb68 bfbe
0.27948532 0.39857697 0.39607427 -0.25600937 -0.25644794 0.39124632 -0.070904516 -0.6740969
-0.10901633 -0.21245432 0.4995391 0.10692392 -0.08749721 0.06855432 0.5847846 -0.20599522
-0.26523232 0.0266483 -0.24233095 0.21584702 0.26809397 0.15602693 -0.43349612 0.32520297
-0.010164949 1.140857 0.2919245 0.5252109 0.49255803 -0.42694116 -0.41107517 0.3478768
-0.0018225993 -0.518323 -0.08216705 -0.22816278 -0.064614415 -0.042525135 -0.025621261 0.5359731
0.0517182 -0.053323325 0.51743025 0.30578262 -0.43436202 0.1367863 -0.17525783 -0.36335972
-0.27197146 0.16875763 -0.1476631 -0.035555065 0.30998462 -0.5904917 0.33379793 -0.5679444
0.026917716 -0.17545746 -0.8038466 -0.4511216 -0.46356413 0.37819228 -0.31236842 0.21293847
0.68580115 -0.41212827 -0.7816893 0.2510297 0.33399346 0.42617086 -0.08023546 -0.011856377
0.006484306 -0.32482108 -0.42177865 0.34982803 -0.20519683 -0.2502336 0.16152985 -0.5930307
0.28654572 0.18193078 0.037535317 0.29319668 -0.31641492 -0.8129411 0.19593224 0.13559517
0.63225734 -0.4470951 0.26612145 -0.3257732 -0.270288 0.39580703 0.5937255 -0.28590015
-0.19840153 -0.19393454 -0.05271687 -0.16174793 0.62472093 -0.5541873 0.100143366 -0.3095652
-0.19928813 0.06558636 0.12776259 -0.23390457 -0.3687362 -0.0656843 0.1456726 0.011839403
-0.4908107 -0.13557377 0.2025763 0.08638233 -0.5288547 -0.48849565 -0.011528952 0.04201691
0.2931863 -0.47152302 0.27275336 -0.687775 0.0732003 -0.13942522 0.42207187 -0.18348676
0.053008474 0.32200474 0.24647833 0.27314764 0.010188205 0.006730891 0.5465205 -0.35819554
-0.0112345945 0.12862982 -0.019463763 -0.07897164 0.15257654 0.64921 0.25908583 -0.15092106
0.50701636 -0.04501107 0.25654143 0.31178302 -0.37461784 0.23717543 -0.27334252 0.2261872
0.9041384 0.030043405 0.4108843 -0.112577714 0.07423453 0.13322252 0.042302135 -0.24653776
0.07883978 0.07489129 0.71120846 -0.18418393 0.024188256 0.036908515 -0.1527917 -0.52278274
-0.20671037 -0.028633881 0.09332182 0.3022636 0.8046426 0.4151942 -0.3595354 0.65614945
0.07785162 0.04765331 0.28090674 0.040657148 0.41187754 0.24038385 0.15871398 -0.57196736
-0.06664973 0.5781272 0.47157982 0.2828254 0.47792158 0.18742332 -0.46099442 -0.21121511
-0.09028842 0.19912718 0.8318857 0.43589795 0.3264476 0.17943625 0.23925522 0.6019488
-0.049707387 -0.10997369 0.43907288 0.07588872 0.19320087 0.032412212 -0.20016864 0.18528496
0.4687446 -0.2562607 0.08853305 0.39060542 -0.20681961 0.1536749 -0.116389684 0.43657285
-0.018006267 -0.24892835 -0.1988352 -0.0007254129 -0.54896873 0.4842726 0.11481824 -0.7780322
-0.15334137 -0.091179855 -0.18987937 0.4299982 0.5569077 -0.2721966 -0.3263668 0.42616403
0.27218476 -0.25281328 -0.043367606 0.12634957 -0.07005411 0.06773759 0.33639693 -0.10879885
0.21987233 0.11996574 0.2799182 0.11847581 -0.052267674 0.4445143 0.118401125 0.41088334
0.10587167 -0.22772749 0.33928087 0.12486396 0.22902866 -0.28724816 -0.042766895 -0.3738459

rnn.bias_ih_l0_reverse f4 [256]
00000000: 1623 42be 8b4f a13e 5dac 533e 0265 ba3e
00000010: b275 e6bc f40c 95be 9043 1fbe 2699 0abe
00000020: 7e63 7b3d 7921 e6be 7b9e fd3d 3016 15bd
00000030: 18a9 ba3c e9b0 10be 8859 793e 35a6 213e
00000040: 1b49 03bf c425 173f e670 cd3d 52d6 3a3e
00000050: ec76 81bd c577 de3a 342a 523e f5df 1cbc
00000060: 3dc0 3b3e 00ba 903d 0dac c3bd aa51 063e
00000070: fe82 513e b6ba 91bd 253d e1bd b2e9 e23d
00000080: bf14 25bd e3c7 91bd 11a0 263e d781 7a3d
00000090: 8e9a ecbe 1be5 083f 311a 8d3e 7f5c 683c
000000a0: 89a0 e8be de7a 17be 19ef 23be d63c 0c3e
000000b0: 69fc 86bc 8442 283d 26ac 78bd 1667 943e
000000c0: 4528 e63e 5757 03be fd35 d83b 9ba4 6a3e
000000d0: aeea 1c3e df8f 12bc 31f9 ea3e b722 60be
000000e0: 2534 033a e7aa 3a3c 0b9b 66be 80a3 87be
000000f0: 5549 c63e 3437 8fbd 4b5e 53bd 7b8e 04be
00000100: 9590 e5be 9813 8a3d 555a 49bd df02 0dbe
00000110: c99c 1dbf 0566 c5be 5b3d 03bc 99d7 783d
00000120: 2850 093e 42b8 0c3f 4150 04be 1464 2bbf
00000130: 2151 65bd 2007 1dbd ea2b c5bd a074 84be
00000140: e04c 883e 029c ddbe 9e8d 13be 83c5 ce3c
00000150: 59eb 183e a00f d23d a4b5 97be 09b8 e4bd
00000160: a8a7 d2bd efac e3be 0cad ae3e de21 953b
00000170: 4a8b 273e 92ba a53d 9a56 d23c f408 afbe
00000180: 7ccf ccbd 0050 07be 39fa fa3d d48c 07bd
00000190: ff29 2a3e affc 1cbf 5cd6 51be 5bdc 55be
000001a0: bcd8 3c3c cb24 fd3c 60d5 26bf e723 2bbf
000001b0: 1402 dfbd 21f0 1abf 6293 3ebe 44fa e9be
000001c0: f3c7 10be cc5b 18bf e8c1 b0bd 915c d33e
000001d0: 6d77 a8bd 3545 7e3d c083 d5be f783 873e
000001e0: 8cfc 5dbe f8ac 42be f37c a83d f30e 2b3f
000001f0: 55aa 43bc 8006 88bb e182 d1be ce59 03be
00000200: 7076 273d 1e49 a6bd df41 673e a9e6 c33e
00000210: f9d6 233e 93d7 e73d 0bc0 e4bd e7f1 803e
00000220: d8b9 96bc 8994 a2be dde2 66be 4843 f13d
00000230: 8139 a2be 47c8 5cbd 9145 09bd fa5a 6bbd
00000240: f3e5 9bbe 84a5 c3bd 9ac9 89bd c42e 503e
00000250: 1f34 a2bd 2562 a7bc a407 903e 56bd 6f3e
00000260: a19f bdbd 9690 1d3c de62 6b3e 761f 9fbd
00000270: dd83 803c 0e0f 38bb 5a43 bb3e 7169 e8bd
00000280: f41e 2dbe 3a19 e43d 9fee 583d 5f69 fc3d
00000290: ac3c dcbc dd37 943b 5f38 1bbf 361e 7dbe
000002a0: eb52 703c b5ca af3d 9e41 e43d 82b2 693e
000002b0: 67f3 62be e1c3 0f3e 1a35 e5bd 6467 44be
000002c0: fdd9 f43d 7cab 293e 4907 3c3d 4202 cabe
000002d0: 0d13 08be 0740 b3bc f045 adbe c5b7 20be
000002e0: 1d6b 293e cb60 94bc a61a 9a3e 10ed 073f
000002f0: 25fc 2b3e 6696 9bbe 5e66 aa3d 24e9 38be
00000300: 6ecc 2bbe 24e5 7c3d 13d1 42bd 563d d73d
00000310: 4e3f 2c3e a716 8dbd 7d0f 7cbe dec0 1a3e
00000320: 195d 0bbe e411 4e3e 591c 953e 1311 ca3e
00000330: 25e9 7b3e f779 e93d e0c6 af3e 41fc 003f
00000340: 0499 a6bd 5b0c 6b3e 9edc be3e 2f5b 7a3e
00000350: ba23 353d 868a 4e3e 6fe7 a8bd f46d 233e
00000360: 97c1 a83d 091e 433e 15bb d4bc 563f 7c3e
00000370: d123 dd3e 9fe4 993e 3851 153d 9ac0 763d
00000380: ec20 c33d 3e47 6b3e 76fb 5a3e de01 743d
00000390: 5cf5 b73e 5d4c a73e cfdb 0dbe ebcb 4abc
000003a0: 58d9 01be 626b dbbd 6ad1 0f3e 315e 503e
000003b0: 7cd5 cdbe a807 653d 21dd 393d f645 b93e
000003c0: 3b10 1e3f 005d c2be f691 e8bc a08a a6be
000003d0: 1460 bc3d 2fdb 16be 8fda ac3e e648 f83c
000003e0: e4ef 1e3e 0d22 2dbd c5be 6a3e 4603 aebe
000003f0: 9d77 513e 7c2b a03e 7acc 7dbe 4db2 33be
-0.18958697 0.31506 0.2067122 0.36405188 -0.028132293 -0.29111445 -0.15553117 -0.13534984
0.06137418 -0.44947413 0.123837434 -0.036398113 0.022785708 -0.14129986 0.2435056 0.15786059
-0.51283425 0.59042 0.10031299 0.18245819 -0.06321511 0.001697295 0.20523912 -0.00957488
0.18335052 0.07066727 -0.095543005 0.1311709 0.20460126 -0.071156904 -0.109979905 0.1107973
-0.04030299 -0.071182035 0.16271998 0.06115898 -0.46211666 0.5347459 0.27559045 0.014182209
-0.4543498 -0.14792964 -0.16009177 0.13695082 -0.01647778 0.04107906 -0.06071105 0.28984898
0.44952598 -0.12826286 0.006598233 0.22914355 0.15323898 -0.008945434 0.45893243 -0.21888243
0.00050050236 0.011393285 -0.22520082 -0.26491928 0.38727823 -0.06992951 -0.051603597 -0.12944977
-0.4483687 0.067420185 -0.049158413 -0.13770626 -0.6156736 -0.38554397 -0.008010234 0.060752485
0.13409483 0.54968655 -0.1292124 -0.6694958 -0.055985574 -0.038336873 -0.096275166 -0.25870228
0.2662115 -0.43283087 -0.14409491 0.025240665 0.14933528 0.102568865 -0.29630768 -0.111679144
-0.10285884 -0.44467875 0.341164 0.0045511564 0.16361728 0.08092226 0.02567606 -0.34186518
-0.10000512 -0.13214111 0.122547574 -0.03309329 0.16617583 -0.61323065 -0.20491928 -0.2088484
0.011526283 0.030901333 -0.65169334 -0.6685166 -0.10889068 -0.6052266 -0.1861091 -0.4569875
-0.14138775 -0.5951507 -0.08630735 0.4128156 -0.08225904 0.06207772 -0.4170208 0.2646787
-0.2167837 -0.19011295 0.08226957 0.66819686 -0.011942466 -0.0041511655 -0.40920165 -0.12827227
0.040884435 -0.08119415 0.22583722 0.38261917 0.15999974 0.113204144 -0.11169442 0.25184557
-0.018399164 -0.31753948 -0.22547479 0.11780411 -0.31684497 -0.053901937 -0.03351361 -0.05745981
-0.30448875 -0.09553054 -0.067279056 0.2033034 -0.079200976 -0.020432541 0.2813083 0.2341207
-0.092589624 0.0096169915 0.22986934 -0.077696726 0.015687877 -0.0028085145 0.36574823 -0.11348236
-0.16906339 0.11137624 0.05296194 0.123247854 -0.0268844 0.004523261 -0.6063289 -0.24718556
0.014668207 0.08583585 0.11145328 0.22822002 -0.22163163 0.14039566 -0.11191769 -0.19180065
0.119556405 0.16569322 0.045905385 -0.39454848 -0.13288517 -0.021881117 -0.3384242 -0.15695103
0.16544767 -0.01811256 0.30098456 0.53096104 0.16795404 -0.30388182 0.08320306 -0.18057686
-0.16777202 0.061741963 -0.04756267 0.10509746 0.16821024 -0.06889086 -0.24615283 0.15112635
-0.13609733 0.20124012 0.2912319 0.39466152 0.24600656 0.11400216 0.34331417 0.5038491
-0.08134654 0.22953932 0.37277693 0.24448846 0.044223525 0.2017003 -0.082472675 0.15959913
0.08240049 0.19054426 -0.025968114 0.24633536 0.43191388 0.30057237 0.03645441 0.060242273
0.09527764 0.22976395 0.21384987 0.059572093 0.35929382 0.32675448 -0.13853382 -0.012377719
-0.12680566 -0.10713841 0.14044729 0.20348431 -0.40201938 0.055915505 0.0453769 0.36186188
0.61743516 -0.37961578 -0.028389912 -0.32527637 0.09198013 -0.1473205 0.33760497 0.030308198
0.15521199 -0.0422688 0.22924335 -0.33986872 0.20455785 0.31283176 -0.24785033 -0.17548485
